…
WARNING:tensorflow:From /azureml-envs/azureml_a4a25a3895e798d70face8edda93b5da/lib/python3.6/site-packages/tensorflow/python/keras/layers/core.py:143: calling dropout (from tensorflow.python.ops.nn_ops) with keep_prob is deprecated and will be removed in a future version.
Instructions for updating:
Please use `rate` instead of `keep_prob`. Rate should be set to `rate = 1 - keep_prob`.
_________________________________________________________________
Layer (type)                 Output Shape              Param #   
=================================================================
conv1 (Conv2D)               (None, 254, 254, 16)      160       
_________________________________________________________________
max_pooling2d (MaxPooling2D) (None, 127, 127, 16)      0         
_________________________________________________________________
conv2 (Conv2D)               (None, 125, 125, 16)      2320      
_________________________________________________________________
max_pooling2d_1 (MaxPooling2 (None, 62, 62, 16)        0         
_________________________________________________________________
dropout (Dropout)            (None, 62, 62, 16)        0         
_________________________________________________________________
conv3 (Conv2D)               (None, 60, 60, 96)        13920     
_________________________________________________________________
max_pooling2d_2 (MaxPooling2 (None, 20, 20, 96)        0         
_________________________________________________________________
conv4 (Conv2D)               (None, 18, 18, 102)       88230     
_________________________________________________________________
max_pooling2d_3 (MaxPooling2 (None, 6, 6, 102)         0         
_________________________________________________________________
dropout_1 (Dropout)          (None, 6, 6, 102)         0         
_________________________________________________________________
flatten (Flatten)            (None, 3672)              0         
_________________________________________________________________
dense (Dense)                (None, 32)                117536    
=================================================================
Total params: 222,166
Trainable params: 222,166
Non-trainable params: 0
_________________________________________________________________
WARNING:tensorflow:From /azureml-envs/azureml_a4a25a3895e798d70face8edda93b5da/lib/python3.6/site-packages/tensorflow/python/ops/math_ops.py:3066: to_int32 (from tensorflow.python.ops.math_ops) is deprecated and will be removed in a future version.
…
